…
=20,\n                     validation_data=validation_ds)\n\n# Plot the training and validation accuracy\nimport matplotlib.pyplot as plt\n\nplt.plot(history.history[\"accuracy\"], label = \"training\")\nplt.plot(history.history[\"val_accuracy\"], label = \"validation\")\nplt.gca().set(xlabel = \"epoch\", ylabel = \"accuracy\")\nplt.legend()\n\nModel: \"sequential\"\n_________________________________________________________________\n Layer (type)                Output Shape              Param #   \n=================================================================\n conv2d (Conv2D)             (None, 148, 148, 32)      896       \n                                                                 \n max_pooling2d (MaxPooling2  (None, 74, 74, 32)        0         \n D)                                                              \n                                                                 \n conv2d_1 (Conv2D)           (None, 72, 72, 64)        18496     \n                                                                 \n max_pooling2d_1 (MaxPoolin  (None, 36, 36, 64)        0         \n g2D)                                                            \n                                                                 \n flatten (Flatten)           (None, 82944)             0         \n                                                                 \n dense (Dense)               (None, 64)                5308480   \n                                                                 \n dropout (Dropout)           (None, 64)                0         \n                                                                 \n dense_1 (Dense)             (None, 1)                 65        \n                                                                 \n=================================================================\nTotal params: 5327937 (20.32 MB)\nTrainable params: 5327937 (20.32 MB)\nNon-trainable params: 0 (0.00 Byte)\n_________________________________________________________________\nEpoch 1/20\n146/146 [==============================] - 18s 70ms/step - loss: 28.
…
odel2.summary()\n\nhistory = model2.fit(train_ds,\n                     epochs=20,\n                     validation_data=validation_ds)\n\nplt.plot(history.history[\"accuracy\"], label = \"training\")\nplt.plot(history.history[\"val_accuracy\"], label = \"validation\")\nplt.gca().set(xlabel = \"epoch\", ylabel = \"accuracy\")\nplt.legend()\n\nModel: \"sequential_1\"\n_________________________________________________________________\n Layer (type)                Output Shape              Param #   \n=================================================================\n random_flip_1 (RandomFlip)  (None, 150, 150, 3)       0         \n                                                                 \n random_rotation_1 (RandomR  (None, 150, 150, 3)       0         \n otation)                                                        \n                                                                 \n conv2d_2 (Conv2D)           (None, 148, 148, 32)      896       \n                                                                 \n max_pooling2d_2 (MaxPoolin  (None, 74, 74, 32)        0         \n g2D)                                                            \n                                                                 \n conv2d_3 (Conv2D)           (None, 72, 72, 64)        18496     \n                                                                 \n max_pooling2d_3 (MaxPoolin  (None, 36, 36, 64)        0         \n g2D)                                                            \n                                                                 \n flatten_1 (Flatten)         (None, 82944)             0         \n                                                                 \n dense_2 (Dense)             (None, 64)                5308480   \n                                                                 \n dropout_1 (Dropout)         (None, 64)                0         \n                                                                 \n dense_3 (Dense)             (None, 1)                 65        \n                                                                 \n=================================================================\nTotal params: 5327937 (20.32 MB)\nTrainable params: 5327937 (20.32 MB)\nNon-trainable params: 0 (0.00 Byte)\n_________________________________________________________________\nEpoch 1/20\n146/146 [==============================] - 8s 38ms/step - loss: 31.7
…
el3.summary()\n\nhistory = model3.fit(train_ds,\n                      epochs=20,\n                      validation_data=validation_ds)\n\nplt.plot(history.history[\"accuracy\"], label = \"training\")\nplt.plot(history.history[\"val_accuracy\"], label = \"validation\")\nplt.gca().set(xlabel = \"epoch\", ylabel = \"accuracy\")\nplt.legend()\n\nModel: \"sequential_2\"\n_________________________________________________________________\n Layer (type)                Output Shape              Param #   \n=================================================================\n model (Functional)          (None, 150, 150, 3)       0         \n                                                                 \n random_flip_2 (RandomFlip)  (None, 150, 150, 3)       0         \n                                                                 \n random_rotation_2 (RandomR  (None, 150, 150, 3)       0         \n otation)                                                        \n                                                                 \n conv2d_4 (Conv2D)           (None, 148, 148, 32)      896       \n                                                                 \n max_pooling2d_4 (MaxPoolin  (None, 74, 74, 32)        0         \n g2D)                                                            \n                                                                 \n conv2d_5 (Conv2D)           (None, 72, 72, 64)        18496     \n                                                                 \n max_pooling2d_5 (MaxPoolin  (None, 36, 36, 64)        0         \n g2D)                                                            \n                                                                 \n conv2d_6 (Conv2D)           (None, 34, 34, 128)       73856     \n                                                                 \n max_pooling2d_6 (MaxPoolin  (None, 17, 17, 128)       0         \n g2D)                                                            \n                                                                 \n flatten_2 (Flatten)         (None, 36992)             0         \n                                                                 \n dense_4 (Dense)             (None, 128)               4735104   \n                                                                 \n dense_5 (Dense)             (None, 64)                8256      \n                                                                 \n dropout_2 (Dropout)         (None, 64)                0         \n                                                                 \n dense_6 (Dense)             (None, 1)                 65        \n                                                                 \n=================================================================\nTotal params: 4836673 (18.45 MB)\nTrainable params: 4836673 (18.45 MB)\nNon-trainable params: 0 (0.00 Byte)\n_________________________________________________________________\nEpoch 1/20\n146/146 [==============================] - 10s 47ms/step - loss: 0.6
…
shape` is undefined or non-square, or `rows` is not 224. Weights for input shape (224, 224) will be loaded as the default.\n\n\nDownloading data from https://storage.googleapis.com/tensorflow/keras-applications/mobilenet_v3/weights_mobilenet_v3_large_224_1.0_float_no_top_v2.h5\n12683000/12683000 [==============================] - 1s 0us/step\nModel: \"sequential_3\"\n_________________________________________________________________\n Layer (type)                Output Shape              Param #   \n=================================================================\n model_1 (Functional)        (None, 5, 5, 960)         2996352   \n                                                                 \n random_flip_3 (RandomFlip)  (None, 5, 5, 960)         0         \n                                                                 \n random_rotation_3 (RandomR  (None, 5, 5, 960)         0         \n otation)                                                        \n                                                                 \n global_max_pooling2d (Glob  (None, 960)               0         \n alMaxPooling2D)                                                 \n                                                                 \n dropout_3 (Dropout)         (None, 960)               0         \n                                                                 \n dense_7 (Dense)             (None, 16)                15376     \n                                                                 \n dense_8 (Dense)             (None, 2)                 34        \n                                                                 \n=================================================================\nTotal params: 3011762 (11.49 MB)\nTrainable params: 15410 (60.20 KB)\nNon-trainable params: 2996352 (11.43 MB)\n_________________________________________________________________\nEpoch 1/20\n146/146 [==============================] - 16s 64ms/step - loss: 
…
el5.summary()\n\nhistory = model5.fit(train_ds,\n                      epochs=20,\n                      validation_data=validation_ds)\n\nplt.plot(history.history[\"accuracy\"], label = \"training\")\nplt.plot(history.history[\"val_accuracy\"], label = \"validation\")\nplt.gca().set(xlabel = \"epoch\", ylabel = \"accuracy\")\nplt.legend()\n\nModel: \"sequential_4\"\n_________________________________________________________________\n Layer (type)                Output Shape              Param #   \n=================================================================\n model_1 (Functional)        (None, 5, 5, 960)         2996352   \n                                                                 \n random_flip_4 (RandomFlip)  (None, 5, 5, 960)         0         \n                                                                 \n random_rotation_4 (RandomR  (None, 5, 5, 960)         0         \n otation)                                                        \n                                                                 \n global_max_pooling2d_1 (Gl  (None, 960)               0         \n obalMaxPooling2D)                                               \n                                                                 \n dropout_4 (Dropout)         (None, 960)               0         \n                                                                 \n dense_9 (Dense)             (None, 64)                61504     \n                                                                 \n dense_10 (Dense)            (None, 2)                 130       \n                                                                 \n=================================================================\nTotal params: 3057986 (11.67 MB)\nTrainable params: 61634 (240.76 KB)\nNon-trainable params: 2996352 (11.43 MB)\n_________________________________________________________________\nEpoch 1/20\n146/146 [==============================] - 13s 54ms/step - loss: 
…
